todo_haiku/syllable-api/syllable_model.onnx (onnx, 32104 bytes, 7 tensors)

sequential/dense/MatMul/ReadVariableOp:0 f4 [16, 1]
0.53367424 0.80582047 -0.22304177 0.5907995 -0.6869077 0.48653778 0.81047004 0.51963705
0.686619 -0.68715096 0.54021543 -0.67222196 0.74155796 0.358181 -0.5035324 -0.43894964
00000000: e09e 083f 404a 4e3f 1065 64be a33e 173f
00000010: 2fd9 2fbf 7b1b f93e f77a 4f3f ef06 053f
00000020: 43c6 2f3f 20e9 2fbf 8f4b 0a3f bd16 2cbf
00000030: bed6 3d3f 8063 b73e 80e7 00bf 02be e0be

W__87 f4 [2, 48, 28]
-0.5642458 -0.4536346 -0.6358555 0.9371434 0.5070059 0.2618147 -0.23611768 -0.18944795
2.408881 -0.021658074 0.27318677 0.2369693 0.40190226 -0.90290886 -0.3735005 0.31657854
0.45972022 0.7618147 0.11307912 0.5167532 0.13368933 1.0226882 -0.9450115 -0.76489717
-0.2982993 -0.45708236 -1.3514117 -0.41344592 -0.18450662 -1.0228018 -2.021688 0.19693391
0.020122787 0.6778824 -2.0696104 -0.3135207 -1.053521 -0.48552123 0.6220834 -0.01986113
-0.48214847 0.16641866 1.1001629 -0.7973601 0.9648413 0.073841564 0.58608955 -1.3662336
0.53638387 -0.7561064 -1.0215971 -1.3268884 0.110985525 -0.21677215 -0.11564397 0.09001019
-0.36371878 -0.2930984 -0.7896321 0.063581936 0.75057393 1.0137727 -0.24954 -0.12268335
-0.28114662 0.4185257 0.20085196 0.40740195 -1.2202713 -0.22047016 0.08688898 0.60940593
-0.6986559 -0.30900988 -0.034380417 -0.4633442 1.0229445 0.6003227 0.2106756 0.081331946
-0.45063242 1.2438529 0.19510426 0.3524496 0.9982938 0.15566039 -1.0032408 0.69989383
1.9355541 -0.16936976 -0.31055406 0.47090968 -0.17070337 -0.19679278 -0.33339942 -0.48852602
0.42519945 -0.29696533 -0.82469183 -1.4311079 -1.0210435 0.09258633 -0.22317234 0.10288998
1.3734171 0.8775271 -0.2114421 -0.36265236 -0.323862 0.92189926 1.1561432 0.5828967
1.8259659 -0.42604423 -1.4364077 -0.38973677 0.8385633 0.8003811 -0.7469571 0.19927514
-0.21036215 0.5959813 -0.8435713 0.34652346 -0.28019863 -1.5149082 -2.5979967 -0.5982614
-4.5809665 -0.15862103 0.61051154 -0.65683544 0.25564703 0.19562715 -0.38561848 -0.8405338
0.17806853 -0.28533974 -1.3371174 0.5620339 0.38047385 -0.96674114 -0.64289725 -0.53882873
-0.743305 0.2741414 -0.35827735 -0.7605509 -0.05270547 -0.7471356 -0.3698043 -0.6987716
-1.6065894 0.4423881 -0.13075756 1.1734587 -0.24528366 -0.78939515 -0.24623954 -0.1584185
-0.4266121 -1.7957816 -0.8464617 -0.049743365 -0.6207686 0.95906395 -0.818765 -0.9001199
1.1959548 0.30042714 -0.7871861 0.38593218 0.18600008 0.34044257 -1.3765252 0.20093061
0.13933651 0.15681048 -0.7257708 -0.15552089 0.2034859 0.24894036 -0.22817539 0.08444169
-0.5339506 0.42696324 -1.0705823 -0.02903679 0.48139822 0.21225926 -1.275627 -0.13529295
-0.18650374 -1.3129935 -3.2851393 0.5265511 0.53035194 -1.0316931 -0.18365061 -0.09437486
0.25223553 0.6550354 -1.4122396 0.4946365 0.604571 0.787016 -0.700818 -0.5117074
-0.5763283 -0.28026295 -0.5471954 -0.28769708 2.4673083 -0.05349128 0.006525495 -0.6367825
0.42704177 0.051507246 -0.93269527 -0.2789394 -0.32216844 -1.5732983 -1.3817375 0.33491638
-0.36286357 -2.5062184 -0.020145025 -0.49661815 -0.16497587 0.32015517 0.432166 -0.3805432
1.245726 0.681678 0.43855393 0.54592055 -0.14930844 -0.49130073 -0.48508212 -0.638831
0.11978209 -0.63052785 -0.8428936 0.43026543 -0.3951043 -0.22729278 -0.37146416 -1.0199583
0.5002251 -0.34701043 -0.12658647 0.34988 1.1270398 0.4704705 -1.0713683 0.088070415
00000000: 6a72 10bf cb42 e8be 6dc7 22bf a1e8 6f3f
00000010: 23cb 013f 940c 863e d5c8 71be a5fe 41be
00000020: 1b2b 1a40 466c b1bc 23df 8b3e 15a8 723e
00000030: 22c6 cd3e 0925 67bf 753b bfbe 9516 a23e
00000040: 7360 eb3e 4a06 433f 0796 e73d f049 043f
00000050: dbe5 083e 72e7 823f 46ec 71bf 4dd0 43bf
00000060: b0ba 98be b306 eabe 0ffb acbf 2faf d3be
00000070: 4eef 3cbe 2beb 82bf 5663 01c0 0ba9 493e
00000080: 8bd8 a43c b389 2d3f 7f74 04c0 c985 a0be
00000090: c7d9 86bf 3d96 f8be dc40 1f3f cfb3 a2bc
000000a0: 2adc f6be a769 2a3e 23d2 8c3f cb1f 4cbf
000000b0: d7ff 763f 3f3a 973d f709 163f bee0 aebf
000000c0: 7450 093f 3090 41bf b2c3 82bf 7bd7 a9bf
000000d0: 614c e33d 85f9 5dbe bfd6 ecbd 4357 b83d
000000e0: 5939 babe fe10 96be 5425 4abf 3f37 823d
000000f0: 9d25 403f 4ec3 813f 6a87 7fbe 6941 fbbd
00000100: 73f2 8fbe 0049 d63e 23ac 4d3e fd96 d03e
00000110: da31 9cbf eec2 61be d9f2 b13d 0702 1c3f
00000120: 1ddb 32bf 8b36 9ebe 7bd2 0cbd 733b edbe
00000130: d8ef 823f c0ae 193f 58bb 573e 5d91 a63d
00000140: 4bb9 e6be 9236 9f3f 69c9 473e 4674 b43e
00000150: 2f90 7f3f 7065 1f3e 326a 80bf 3e2c 333f
00000160: 3dc0 f73f 446f 2dbe f100 9fbe 131b f13e
00000170: ddcc 2ebe 0c84 49be 54b3 aabe 1520 fabe
00000180: beb3 d93e d70b 98be 011f 53bf 8b2e b7bf
00000190: 8eb1 82bf e79d bd3d 4a87 64be fbb7 d23d
000001a0: 22cc af3f 9ea5 603f 4784 58be 92ad b9be
000001b0: 3dd1 a5be 9701 6c3f 80fc 933f b838 153f
000001c0: 40b9 e93f 7822 dabe 35dc b7bf 948b c7be
000001d0: 16ac 563f c7e5 4c3f 9538 3fbf c80e 4c3e
000001e0: 2d69 57be 3b92 183f 4af4 57bf 866b b13e
000001f0: 3276 8fbe 83e8 c1bf 9445 26c0 a927 19bf
00000200: 4797 92c0 8d6d 22be 7c4a 1c3f 5e26 28bf
00000210: 2be4 823e 7c52 483e c96f c5be 392d 57bf
00000220: 9957 363e 0d18 92be aa26 abbf 74e1 0f3f
00000230: 78cd c23e 597c 77bf ea94 24bf aef0 09bf
00000240: 3d49 3ebf 435c 8c3e 2170 b7be 77b3 42bf
00000250: b1e1 57bd 4744 3fbf fd56 bdbe b2e2 32bf
00000260: b9a4 cdbf b180 e23e 4fe5 05be e533 963f
00000270: a42b 7bbe cd15 4abf 3826 7cbe 7638 22be
00000280: e76c dabe 2cdc e5bf b7b1 58bf b3bf 4bbd
00000290: b1ea 1ebf 3785 753f 959a 51bf 426e 66bf
000002a0: 0c15 993f 96d1 993e 0785 49bf e798 c53e
000002b0: ce76 3e3e 7d4e ae3e fa31 b0bf c1c0 4d3e
000002c0: 3bae 0e3e ed92 203e 1dcc 39bf de40 1fbe
000002d0: 9c5e 503e 39ea 7e3e cfa6 69be c4ef ac3d
000002e0: fdb0 08bf ed9a da3e d708 89bf 90de edbc
000002f0: d479 f63e 7e5a 593e bf47 a3bf 3c8a 0abe
00000300: d6fa 3ebe 2c10 a8bf b93f 52c0 0ecc 063f
00000310: 25c5 073f 850e 84bf e80e 3cbe 9b47 c1bd
00000320: 0425 813e 66b0 273f 44c4 b4bf ff40 fd3e
00000330: 2ac5 1a3f e179 493f cf68 33bf 42ff 02bf
00000340: 408a 13bf a07e 8fbe ff14 0cbf 084d 93be
00000350: 61e8 1d40 ac19 5bbd d2d3 d53b 2e04 23bf
00000360: 38a5 da3e 43f9 523d 1ec5 6ebf 25d1 8ebe
00000370: 43f3 a4be d761 c9bf c6dc b0bf 297a ab3e
00000380: 41c9 b9be e265 20c0 2e07 a5bc bc44 febe
00000390: 6fef 28be 61eb a33e dd44 dd3e 8fd6 c2be
000003a0: f373 9f3f 7382 2e3f 248a e03e 73c1 0b3f
000003b0: 50e4 18be c58b fbbe af5c f8be 6e8a 23bf
000003c0: 5050 f53d 466a 21bf e0c7 57bf c04b dc3e
000003d0: 1c4b cabe 70bf 68be 8d30 bebe fe8d 82bf
000003e0: c10e 003f 5aab b1be e29f 01be 7923 b33e
000003f0: d742 903f 82e1 f03e 9922 89bf 435e b43d

W__73 f4 [1, 48, 32]
0.14540589 -0.101995945 0.51563215 0.7331894 0.37796152 0.71912366 0.09880622 -0.016546693
0.6241672 -0.21054444 0.16747116 -0.35002887 -0.6718255 0.39783904 0.19590767 -0.4372695
0.7775902 0.52554566 -0.7665536 1.2067131 -0.8928329 -0.36006737 -0.18877599 -1.4823602
0.6944271 -1.183061 -0.48870608 1.9480187 0.29126075 -0.07200432 0.18461902 1.2369335
0.1140416 1.6647993 -0.19400479 0.04169304 0.118816406 0.12011399 0.43428 -0.339181
-0.12765257 -0.29869223 0.0022504095 -0.761457 -0.37989736 0.4186999 -1.4764708 -0.3571354
0.24955282 0.15847512 -1.0709143 0.5454953 -0.052383877 -0.23097827 -0.26167384 -0.27296555
-0.32993278 1.1210346 -0.2642981 -0.14077818 0.13656265 -0.6107947 -0.8107391 -0.28232944
-0.016127491 0.3373222 -0.35058954 0.12224513 0.28552645 0.2099521 0.11623301 0.37894157
0.6170677 0.18831706 0.4514323 0.48966077 -0.40766394 0.6144522 -0.15047319 -0.089801274
-0.040008117 0.59822786 0.35673085 -0.6285663 0.061671026 0.06117736 0.49054745 -0.03924657
-0.12588061 0.079134725 0.18479045 0.22903228 0.19482778 -0.43582186 -0.5027297 0.48108056
0.20839378 0.16696359 -0.53433573 -0.1296792 -1.0249369 -0.48211095 0.24929552 0.10210244
-0.35235026 -0.11031212 0.20746204 0.11318874 0.098679066 -0.86887145 0.17082544 0.84850925
0.63310164 0.09869739 0.2090149 1.3422552 -0.9156767 0.4634212 -1.0716659 -0.7786791
-0.1204854 0.04859504 -0.041531697 0.28273004 0.4290726 -1.062715 0.34098125 0.28744212
0.035555273 -0.7328059 -0.1467462 -0.11414723 0.5707584 -0.042149723 -0.4001618 -0.034620322
-0.19887616 0.59171003 0.4164839 -0.8638329 -0.55360204 0.5184877 0.47754323 -0.65365326
0.34130967 1.3297298 0.67022747 0.54979455 -0.9493162 0.54330873 0.23733471 -1.2446351
0.48815316 -0.8262523 -0.5580978 1.6028254 0.7355369 0.8743972 -0.38849238 1.8975579
0.09018931 0.5264191 0.697787 -0.45837432 -0.505275 -0.57829714 -0.014442794 0.4004991
0.7194406 -0.4904365 0.725468 0.11490851 -0.5072431 -0.34004176 -1.263552 0.92865586
-0.29525656 -0.080936484 0.3261315 -0.29621187 -0.23000237 -0.58733886 -0.30314323 0.53946584
-0.19749966 -0.22487275 0.30291805 0.06516848 0.31956092 -0.43063796 0.5308196 -0.21634832
0.5567615 -0.5457631 -0.5927882 0.33086306 -0.4343766 -0.5016219 1.1212524 -0.011499764
-0.5591781 -0.2765198 0.09463832 -0.1698524 -0.2984962 -0.5319277 -0.19822092 0.6580445
0.048574135 0.1402048 -0.27717167 0.40660405 -1.1331226 0.1875404 -0.31033576 -1.0517812
0.50023466 0.19002539 0.3210051 0.5276866 0.8121835 -0.1980129 0.610126 0.29080242
-0.017156793 0.40475464 -0.4220089 0.07953157 0.247598 -0.1522728 0.70824105 0.051282257
-0.14466362 -0.32337043 0.3470157 -0.008554161 -0.22010827 -0.8571051 0.02001323 -0.14439341
0.4976633 -0.1835163 0.33813304 0.97189087 -0.012860718 -0.09646921 -0.43563274 0.35887998
0.2803462 -0.4810494 -0.35577905 -0.05821785 0.9702126 -0.6884975 0.06279461 -0.25855127
00000000: 48e5 143e 40e3 d0bd 7800 043f 4db2 3b3f
00000010: 2c84 c13e 7d18 383f ea5a ca3d ee8c 87bc
00000020: 6cc9 1f3f f698 57be 8f7d 2b3e fc36 b3be
00000030: c2fc 2bbf 8fb1 cb3e 059c 483e cae1 dfbe
00000040: 2710 473f 298a 063f db3c 44bf 9375 9a3f
00000050: b290 64bf c05a b8be 7e4e 41be fbbd bdbf
00000060: f9c5 313f 8b6e 97bf af37 fabe ad58 f93f
00000070: 2120 953e 0077 93bd c50c 3d3e d653 9e3f
00000080: a48e e93d 2518 d53f 31a9 46be 52c6 2a3d
00000090: 0456 f33d 53fe f53d f359 de3e 22a9 adbe
000000a0: 5bb7 02be 30ee 98be 9b7b 133b d9ee 42bf
000000b0: e881 c2be d55f d63e fffc bcbf 73da b6be
000000c0: c68a 7f3e 4d47 223e b813 89bf 94a5 0b3f
000000d0: 7a90 56bd 9185 6cbe 1dfa 85be 24c2 8bbe
000000e0: f3ec a8be 107e 8f3f 1552 87be 2828 10be
000000f0: 14d7 0b3e 0b5d 1cbf 998c 4fbf 7c8d 90be
00000100: cd1d 84bc 7fb5 ac3e 7980 b3be a85b fa3d
00000110: 8630 923e affd 563e 930b ee3d a104 c23e
00000120: 26f8 1d3f 30d6 403e 2222 e73e d1b4 fa3e
00000130: 54b9 d0be bd4c 1d3f a515 1abe bbe9 b7bd
00000140: 8ddf 23bd 7625 193f 6da5 b63e b9e9 20bf
00000150: c29a 7c3d 1d95 7a3d 0929 fb3e 03c1 20bd
00000160: d9e6 00be 6311 a23d b539 3d3e 7087 6a3e
00000170: ef80 473e 0b24 dfbe e5b2 00bf 3150 f63e
00000180: 2e65 553e 81f8 2a3e 3aca 08bf a0ca 04be
00000190: 2231 83bf 3fd7 f6be 5347 7f3e 161b d13d
000001a0: 4167 b4be 52eb e1bd ee70 543e 80cf e73d
000001b0: 4018 ca3d 5c6e 5ebf ddec 2e3e e737 593f
000001c0: f312 223f db21 ca3d 0008 563e 05cf ab3f
000001d0: ca69 6abf 8b45 ed3e 592c 89bf 8357 47bf
000001e0: 0dc1 f6bd 980b 473d 241d 2abd fec1 903e
000001f0: 67af db3e 0c07 88bf 1895 ae3e 9d2b 933e
00000200: 68a2 113d 2b99 3bbf a344 16be 06c6 e9bd
00000210: 391d 123f 30a5 2cbd 02e2 ccbe 0ace 0dbd
00000220: 31a6 4bbe 4f7a 173f 613d d53e 2724 5dbf
00000230: ddb8 0dbf 9cbb 043f 8c80 f43e d255 27bf
00000240: 24c0 ae3e 9634 aa3f 0794 2b3f 56bf 0c3f
00000250: 6306 73bf 4816 0b3f df07 733e 3450 9fbf
00000260: 36ef f93e 4585 53bf 7fdf 0ebf 6229 cd3f
00000270: 254c 3c3f 7fd8 5f3f 79e8 c6be 2de3 f23f
00000280: 2cb5 b83d 67c3 063f 2ba2 323f 0ab0 eabe
00000290: b459 01bf 480b 14bf 78a1 6cbc 380e cd3e
000002a0: 422d 383f 7e1a fbbe 45b8 393f 2755 eb3d
000002b0: afda 01bf f419 aebe 12bc a1bf 64bc 6d3f
000002c0: de2b 97be 07c2 a5bd b5fa a63e 15a9 97be
000002d0: be85 6bbe d75b 16bf 9735 9bbe 6f1a 0a3f
000002e0: 5a3d 4abe 0b45 66be 1318 9b3e 0d77 853d
000002f0: 7d9d a33e 947c dcbe cbe3 073f 6a8a 5dbe
00000300: ec87 0e3f 21b7 0bbf f8c0 17bf e266 a93e
00000310: 9c66 debe 4b6a 00bf 3385 8f3f 8269 3cbc
00000320: 4c26 0fbf 0194 8dbe bcd1 c13d caed 2dbe
00000330: 7ed4 98be 6a2c 08bf 6dfa 4abe 9b75 283f
00000340: acf5 463d d991 0f3e 72e9 8dbe 682e d03e
00000350: 290a 91bf 970a 403e 54e4 9ebe c4a0 86bf
00000360: 610f 003f 0496 423e c85a a43e 7816 073f
00000370: 42eb 4f3f e5c3 4abe 3831 1c3f 0ee4 943e
00000380: 678c 8cbc 003c cf3e 8d11 d8be 73e1 a23d
00000390: 558a 7d3e 67ed 1bbe 494f 353f 580d 523d
000003a0: b322 14be cf90 a5be 0bac b13e c026 0cbc
000003b0: 1064 61be 3d6b 5bbf c9f2 a33c dedb 13be
000003c0: b9cd fe3e b2eb 3bbe c61f ad3e d7cd 783f
000003d0: c3b5 52bc a691 c5bd 410b dfbe 1ebf b73e
000003e0: 8a89 8f3e 1b4c f6be ac28 b6be d775 6ebd
000003f0: da5f 783f 5f41 30bf 769a 803d d560 84be

R__88 f4 [2, 48, 16]
-0.20416644 0.15475945 -0.18429646 -0.17918378 -1.0341911 -0.2326684 0.85630524 0.33773956
0.83533627 -0.24617484 -0.20939083 0.6221749 0.74692386 0.03367737 0.38752785 -0.34152833
0.21810032 0.37197247 0.2997812 -0.27736253 -1.058702 -0.3497684 0.93834424 -0.861363
0.38125718 0.8176261 0.07898288 -0.036511242 0.019464089 0.15345703 -0.2967622 -0.35155433
-0.23215623 0.6668593 0.5205688 -0.6695191 -0.50531465 -1.1455123 1.1875459 0.5995278
0.29781723 0.31679803 0.79217005 0.24617541 0.38773954 -0.295173 0.0681198 0.6080249
0.11812575 -1.6587918 0.21165696 -0.13184616 -1.6612536 0.22053826 0.20815809 0.7388912
0.20921378 -0.6023616 -0.47595477 0.612948 0.10990148 -0.1485474 0.98987263 -0.20297706
0.63170606 0.6610199 0.020447375 0.76037455 -0.0031712574 -0.94699705 0.17887902 -0.6387464
-0.39009413 0.08165667 0.12468776 -0.02645358 0.6091644 0.392352 0.056673806 0.5682372
-0.50004387 -0.5756479 -0.17432715 -0.66360426 -1.2326198 0.08838932 0.14507003 0.31181213
0.9598913 -0.109848104 0.058351647 0.060602214 -0.26209196 -0.4599284 0.2160873 -0.34792188
0.34804934 0.18061389 0.3013277 0.13738284 1.0123464 0.69346017 -0.8076611 0.3942889
-0.09461979 -1.0633839 -0.051152114 -0.105602145 -0.053956658 -1.108924 -0.9897725 0.7577611
0.15416706 0.3526647 0.07164818 0.48507544 0.52165586 -0.017357558 0.2700555 0.45739296
-0.47284058 -0.7329058 0.020594403 0.20401719 0.23905961 0.31650496 -0.32546732 -0.040415935
0.08926283 -0.08391362 -1.560239 0.018790843 -2.9160457 0.6265059 0.54820174 0.5461376
0.581066 -0.6430158 -1.0450647 1.0944682 0.19114092 -1.2396281 0.556792 -0.27032015
0.421351 -0.59733236 -0.37275523 -0.2457274 -0.40035805 1.4707298 -1.4882128 0.2688907
0.5305101 0.53924054 -0.029751688 0.18740495 -0.7022504 -1.0000412 -0.26133606 -0.4649522
-0.44684213 -0.8156867 0.17389378 0.31768334 -0.78623396 -0.13215336 0.7342634 0.102836914
-0.30550298 -1.1692034 0.06016931 0.68477833 0.9163635 0.2446731 0.8235092 -0.28114933
-0.48100215 1.3090647 0.52328926 -0.3229798 -1.5773385 0.55124146 2.4668708 0.17717169
-0.23292735 0.38604233 -0.07907155 0.44920674 -0.15399148 0.14454581 0.3026543 -0.9022007
0.47010967 -0.71901286 0.067702785 0.76881003 -0.81772333 0.98658055 0.7893883 -1.3585846
0.4364583 0.10261964 -1.4382925 -0.68100035 0.7974907 -1.2785844 0.15808736 0.06374326
-0.39543712 0.44425464 0.281237 -0.9222859 -0.62410796 0.4980739 1.6096793 0.66925865
0.9528069 0.235683 0.4670732 0.5035113 -0.45917538 -1.3957672 0.070665665 0.29465237
0.52955717 0.6650783 -0.41199654 0.64143825 -0.90937954 -0.11503762 1.5810109 -1.0349962
-0.6053135 -0.30437082 -0.73863614 -0.5967584 -0.24052718 0.1980401 0.3109179 -0.288034
-0.28618976 0.10382491 -0.084511876 -0.44235957 -0.08062961 -0.23151013 1.122484 0.4828644
-0.02115629 0.39451766 0.3925053 0.0038763052 -0.45019484 -0.21736446 0.2519449 -0.3875647
00000000: 0211 51be 4379 1e3e 36b8 3cbe f47b 37be
00000010: 6060 84bf a040 6ebe d236 5b3f 33ec ac3e
00000020: 99d8 553f 4215 7cbe 8d6a 56be db46 1f3f
00000030: 6736 3f3f 48f1 093d 0d6a c63e cddc aebe
00000040: b155 5f3e 2d73 be3e ec7c 993e 7602 8ebe
00000050: 8c83 87bf d814 b3be 5437 703f 4982 5cbf
00000060: 2434 c33e f24f 513f c7c1 a13d d08c 15bd
00000070: 2773 9f3c d723 1d3e 37f1 97be eefe b3be
00000080: 5dba 6dbe 4bb7 2a3f ff43 053f 9b65 2bbf
00000090: 4d5c 01bf 26a0 92bf 8101 983f a77a 193f
000000a0: 807b 983e 5a33 a23e a8cb 4a3f 6815 7c3e
000000b0: cc85 c63e ea20 97be 6582 8b3d 85a7 1b3f
000000c0: eaeb f13d 4a53 d4bf 9abc 583e ae02 07be
000000d0: f5a3 d4bf c8d4 613e 6527 553e f927 3d3f
000000e0: 233c 563e 5f34 1abf 58b0 f3be 29ea 1c3f
000000f0: 0714 e13d cf1c 18be 4b68 7d3f 38d9 4fbe
00000100: 7db7 213f 9a38 293f 4181 a73c e8a7 423f
00000110: dfd4 4fbb 666e 72bf 102c 373e e284 23bf
00000120: 6bba c7be 9d3b a73d 4c5c ff3d 2eb5 d8bc
00000130: 33f2 1b3f 5de2 c83e cb22 683d fe77 113f
00000140: e002 00bf a95d 13bf d182 32be f8e1 29bf
00000150: 7cc6 9dbf 7605 b53d 3d8d 143e d7a5 9f3e
00000160: 70bb 753f 0bf8 e0bd 2302 6f3d 073a 783d
00000170: eb30 86be bc7b ebbe fd45 5d3e d122 b2be
00000180: 8633 b23e d9f2 383e a047 9a3e 16ae 0c3e
00000190: 9194 813f 9b86 313f e1c2 4ebf 3ce0 c93e
000001a0: 05c8 c1bd f71c 88bf e184 51bd f045 d8bd
000001b0: a801 5dbd 39f1 8dbf bb61 7dbf a2fc 413f
000001c0: f8dd 1d3e 7890 b43e 48bc 923d cf5b f83e
000001d0: 3d8b 053f 7031 8ebc b744 8a3e 692f ea3e
000001e0: 2918 f2be b79f 3bbf 98b5 a83c e2e9 503e
000001f0: 0bcc 743e f00c a23e a7a3 a6be 2e8b 25bd
00000200: 6ecf b63d e7da abbd e9b5 c7bf 41ef 993c
00000210: 7ea0 3ac0 b162 203f f356 0c3f accf 0b3f
00000220: bec0 143f af9c 24bf aec4 85bf 8917 8c3f
00000230: 72ba 433e 22ac 9ebf ec89 0e3f 6767 8abe
00000240: 51bb d73e c6ea 18bf c6d9 bebe f79f 7bbe
00000250: bbfb ccbe e040 bc3f c27d bebf 0bac 893e
00000260: 83cf 073f ab0b 0a3f d0b9 f3bc 15e7 3f3e
00000270: afc6 33bf 5a01 80bf d7cd 85be 370e eebe
00000280: 7ec8 e4be d8d0 50bf 3611 323e 64a7 a23e
00000290: a146 49bf 3653 07be b0f8 3b3f 299c d23d
000002a0: e36a 9cbe 75a8 95bf 1874 763d a24d 2f3f
000002b0: cc96 6a3f 968b 7a3e 80d1 523f cef2 8fbe
000002c0: ea45 f6be 6f8f a73f 49f6 053f 9c5d a5be
000002d0: 3ae6 c9bf 291e 0d3f 36e1 1d40 7f6c 353e
000002e0: 8284 6ebe 57a7 c53e 44f0 a1bd 6dfe e53e
000002f0: f1af 1dbe d103 143e 81f5 9a3e a0f6 66bf
00000300: 37b2 f03e 3a11 38bf c2a7 8a3d bcd0 443f
00000310: 5156 51bf 8b90 7c3f 5a15 4a3f 1ae6 adbf
00000320: 7677 df3e 3f2a d23d f819 b8bf 0a56 2ebf
00000330: 5a28 4c3f a7a8 a3bf a7e1 213e d48b 823d
00000340: bc76 cabe 5875 e33e 4cfe 8f3e ee1a 6cbf
00000350: 8ac5 1fbf 8b03 ff3e f909 ce3f 8954 2b3f
00000360: 27eb 733f e256 713e 3824 ef3e 1ee6 003f
00000370: 0919 ebbe 80a8 b2bf 29b9 903d addc 963e
00000380: 0f91 073f 9242 2a3f 36f1 d2be 4c35 243f
00000390: 19cd 68bf d898 ebbd 915e ca3f c17a 84bf
000003a0: d3f5 1abf 7ed6 9bbe 4217 3dbf 29c5 18bf
000003b0: c24c 76be 06cb 4a3e a230 9f3e 3179 93be
000003c0: 7787 92be 28a2 d43d 9014 adbd f47c e2be
000003d0: 2321 a5bd fe10 6dbe 8ead 8f3f 013a f73e
000003e0: f54f adbc 38fe c93e 74f6 c83e 9c09 7e3b
000003f0: f07f e6be ca94 5ebe ecfe 803e e16e c6be

R__74 f4 [1, 48, 16]
0.15105087 -0.18571173 0.038953062 0.66762686 0.33167267 0.041497163 0.289802 -0.10192703
-0.1381819 0.12675856 0.028090006 0.1475482 0.22770816 1.3094438 -0.8990233 0.15070657
-0.38937175 -1.676249e-05 -0.23455656 0.45577997 0.072820656 -0.29937476 -0.19224179 -0.563737
0.43588844 0.7177752 -0.17510316 -0.17697234 0.11959505 0.26916787 -0.10082875 0.023631195
0.4742602 0.24561657 -0.5913377 0.41896656 0.059515193 0.050420254 0.79015326 0.8108999
-0.35764438 -0.20109902 0.3075132 -0.39319223 0.2760686 -0.06809181 -0.41027763 -0.94648343
0.45563135 -0.47633684 -0.2223256 0.7439866 -0.38493013 0.7008391 0.24132143 0.21555817
1.0246646 -0.04026753 0.7071727 -0.16956994 0.8018403 1.4470807 -0.298257 -0.5851991
-0.33994663 0.17837402 -0.0069768364 0.06673357 -0.02824042 -0.14245138 0.17189781 0.12623596
0.0886691 -0.1263638 -0.24303411 0.31290507 0.266995 0.32717717 0.30125085 -0.1203122
0.4986425 -0.1541502 -0.11283153 -0.09111201 -0.55499303 -0.4051199 -0.17012833 0.41422248
0.2127934 -0.32632908 0.101770446 -0.25835934 0.9759516 -0.3564293 -0.20297126 0.0721324
0.31339234 0.13663645 -0.3966528 0.1422247 -0.28995952 0.70088005 -0.3403134 0.08828295
-0.03981149 -0.5055982 0.63013226 -0.089069024 0.7363576 -0.16953643 -0.7984374 -0.29182473
-0.11837155 0.49186808 -0.000864649 0.1713858 -0.5347951 0.3674269 0.5473445 0.09126134
0.58546746 -0.13515532 0.24376932 -0.43171725 0.8593704 -0.24136202 -0.9017958 -0.15607196
-0.020960683 -0.018566042 0.58193004 -0.3539046 0.18712506 -0.60135823 0.07590824 -0.1256369
-0.07142825 0.7861794 -0.4339348 0.21690273 0.9055952 0.16163638 -0.1496382 0.5439921
0.13529523 0.19139439 -0.41753522 0.28359562 0.070193484 0.1790856 0.65828574 0.10419538
0.41128168 0.7229396 0.75591356 -0.04904314 0.2684833 0.22395529 0.097552545 -0.050450608
0.27528396 0.07761209 -0.14766514 -0.41710514 -0.32899228 0.16364768 -0.42431763 -0.18302551
0.18607847 0.5639781 -0.044725016 -0.13452925 -0.090274274 0.5146766 0.17058247 -0.1068242
0.17416579 -0.024605317 -0.4216176 -0.04728367 -0.0334917 -0.11214881 -0.07356561 -0.13389403
0.3156767 0.5125231 -0.116264254 -0.020845033 0.02658397 0.2738176 0.22894311 -0.24771337
-1.4829421 0.06999149 0.77891576 -0.30468014 0.23621659 0.12313724 -0.24120373 -0.36001435
0.2225339 0.7562341 0.2681555 -0.15471491 0.114112444 0.5953878 0.70371103 0.42743522
0.21570031 -0.10676107 0.19267039 0.4640492 -0.18164916 0.24671754 0.7330945 0.3734921
1.021284 -0.23629011 0.25609434 -0.19558361 0.32248273 -0.110191524 -0.5040016 -0.5781167
0.67745245 0.3948396 -0.5246323 2.207475 0.35078487 0.777702 0.83162516 0.72357976
0.19605696 -0.20890912 0.5215342 0.06272981 -0.43711686 0.8027742 -0.43678242 -0.8797078
0.14479293 -0.031596173 -0.12502976 0.24150392 -0.7760338 0.25576338 0.43905142 0.9133383
0.9538969 0.5743844 -0.20757665 -0.72445124 -0.20045939 0.30432272 -0.7128955 -0.20500594
00000000: 14ad 1a3e 372b 3ebe 3f8d 1f3d 98e9 2a3f
00000010: 00d1 a93e eef8 293d ee60 943e 1ebf d0bd
00000020: 8e7f 0dbe ffcc 013e 031d e63c e016 173e
00000030: 542c 693e db9b a73f 6426 66bf d352 1a3e
00000040: bc5b c7be 2c9d 8cb7 982f 70be fe5b e93e
00000050: ff22 953d a647 99be 08db 44be 1151 10bf
00000060: c52c df3e 1ec0 373f 3e4e 33be 3d38 35be
00000070: 40ee f43d 5fd0 893e 4e7f cebd 3596 c13c
00000080: 3cd2 f23e e982 7b3e e861 17bf c982 d63e
00000090: 34c6 733d 7885 4e3d 7c47 4a3f 2397 4f3f
000000a0: 2a1d b7be e7ec 4dbe 5f72 9d3e 7e50 c9be
000000b0: dd58 8d3e b873 8bbd e90f d2be bd4c 72bf
000000c0: 8348 e93e 6ce2 f3be 52a9 63be e875 3e3f
000000d0: 9015 c5be 316a 333f f71c 773e 48bb 5c3e
000000e0: 3628 833f 91ef 24bd 4509 353f bea3 2dbe
000000f0: 6845 4d3f f139 b93f 24b5 98be 9ccf 15bf
00000100: 7c0d aebe aea7 363e f29d e4bb 9cab 883d
00000110: 7458 e7bc c6de 11be fb05 303e 0044 013e
00000120: 2598 b53d 8365 01be efdd 78be 1835 a03e
00000130: 92b3 883e c483 a73e 8d3d 9a3e 3e66 f6bd
00000140: 124e ff3e 8dd9 1dbe 3814 e7bd ef98 babd
00000150: 0614 0ebf e06b cfbe 1f36 2ebe f814 d43e
00000160: 83e6 593e 9b14 a7be 066d d03d ad47 84be
00000170: f7d7 793f e77d b6be b3d7 4fbe 27ba 933d
00000180: f674 a03e 6dea 0b3e 1316 cbbe 5aa3 113e
00000190: 9375 94be e06c 333f 8f3d aebe b1cd b43d
000001a0: 5f11 23bd e26e 01bf 5950 213f d269 b6bd
000001b0: ef81 3c3f f59a 2dbe 6566 4cbf 0d6a 95be
000001c0: c96c f2bd 22d6 fb3e 9da9 62ba c27f 2f3e
000001d0: 55e8 08bf 611f bc3e c51e 0c3f 3ae7 ba3d
000001e0: 32e1 153f 2866 0abe aa9e 793e 0b0a ddbe
000001f0: b3ff 5b3f 9b27 77be 17dc 66bf 54d1 1fbe
00000200: bdb5 abbc d017 98bc 5ef9 143f fc32 b5be
00000210: b69d 3f3e 9df2 19bf c875 9b3d f6a6 00be
00000220: f948 92bd 0e43 493f b42c debe c01b 5e3e
00000230: 16d5 673f 0284 253e c23a 19be 1143 0b3f
00000240: d58a 0a3e e4fc 433e 2dc7 d5be 7233 913e
00000250: 9ac1 8f3d 3762 373e 6a85 283f 6364 d53d
00000260: 8393 d23e 9212 393f 8d83 413f 76e1 48bd
00000270: a576 893e 8954 653e a1c9 c73d 4ca5 4ebd
00000280: 05f2 8c3e 16f3 9e3d 8835 17be ce8e d5be
00000290: ad71 a8be 4293 273e 2940 d9be 0a6b 3bbe
000002a0: 5b8b 3e3e de60 103f 9431 37bd 09c2 09be
000002b0: b8e1 b8bd d8c1 033f 2cad 2e3e a5c6 dabd
000002c0: 8458 323e 1791 c9bc 43de d7be 86ac 41bd
000002d0: 982e 09bd 46ae e5bd 91a9 96bd 841b 09be
000002e0: 60a0 a13e b734 033f f41b eebd 34c3 aabc
000002f0: a0c6 d93c d231 8c3e 1070 6a3e 93a8 7dbe
00000300: 0cd1 bdbf b357 8f3d 0667 473f 09ff 9bbe
00000310: c3e2 713e 612f fc3d 1cfe 76be cd53 b8be
00000320: eddf 633e 8f98 413f ad4b 893e 966d 1ebe
00000330: c9b3 e93d 566b 183f 6826 343f cad8 da3e
00000340: 8be0 5c3e 8ca5 dabd 634b 453e db97 ed3e
00000350: 3d02 3abe 86a3 7c3e 15ac 3b3f 5b3a bf3e
00000360: 6fb9 823f 09f6 71be cc1e 833e 1247 48be
00000370: 751c a53e 18ac e1bd 4006 01bf 75ff 13bf
00000380: 866d 2d3f 6b28 ca3e 4d4e 06bf 4547 0d40
00000390: 139a b33e 7a17 473f 63e5 543f 863c 393f
000003a0: 28c3 483e 46ec 55be 4483 053f 7d78 803d
000003b0: c8cd dfbe 9c82 4d3f f2a1 dfbe 8834 61bf
000003c0: 9944 143e fd6a 01bd cd07 00be ce4c 773e
000003d0: 27aa 46bf 6bf3 823e 59cb e03e 8ad0 693f
000003e0: 9632 743f db0a 133f f98e 54be a375 39bf
000003f0: 3a45 4dbe 30d0 9b3e 5280 36bf 14ed 51be

B__89 f4 [2, 96]
0.013164601 -0.63826615 -0.03721396 0.35510278 -0.22823635 0.68484503 -0.8265078 -0.015257814
0.48981974 -0.08892108 0.11423841 -0.6982687 -0.67911077 0.6626326 0.2695129 0.7568174
-0.24667186 -0.33685055 -0.21302088 -0.560609 -0.022934278 -0.35034776 0.19764541 -0.19092768
-0.34082365 -0.1221201 -0.38757634 -0.60302484 0.008769426 -0.2012407 -0.13980314 0.014618467
0.030483542 -0.015862979 0.0055205547 0.011532697 -0.024086043 -0.07952364 0.2734943 -0.1251786
-0.09731937 -0.02835249 0.0017544529 -0.062296893 -0.025648972 -0.082163036 -0.037382677 0.07016001
0.013164601 -0.63826615 -0.03721396 0.35510278 -0.22823635 0.68484503 -0.8265078 -0.015257814
0.48981974 -0.08892108 0.11423841 -0.6982687 -0.67911077 0.6626326 0.2695129 0.7568174
-0.24667186 -0.33685055 -0.21302088 -0.560609 -0.022934278 -0.35034776 0.19764541 -0.19092768
-0.34082365 -0.1221201 -0.38757634 -0.60302484 0.008769426 -0.2012407 -0.13980314 0.014618467
0.035785437 -0.018991727 -0.027746387 -0.0028474287 -0.121687986 -0.08203619 0.26192787 -0.05807572
-0.0632822 -0.020874491 -0.029591665 -0.06488015 -0.039682213 -0.047810346 -0.032530215 0.06808853
-0.24307303 -0.5192918 -0.40697828 0.122510545 -0.77959317 -0.31511632 -0.42667946 -0.21917538
-0.104989514 -0.74243677 -0.36557317 -0.2031619 -0.450422 -0.7913337 -0.3394903 -0.431857
-0.30774868 -0.15822177 -0.4164204 -0.11071842 -0.061343826 0.01595078 -0.18166527 -0.16747285
-0.43861824 -0.054653253 -0.28289273 -0.14356288 0.08953358 -0.043796316 -0.34185866 -0.377351
0.036084026 0.011291726 0.1378602 -0.027498156 -0.069221325 -0.025170842 -0.06715314 -0.015161439
0.11360498 0.008570651 -0.018446673 -0.0070076794 0.088176854 0.09758724 0.018174741 0.0068913917
-0.24307303 -0.5192918 -0.40697828 0.122510545 -0.77959317 -0.31511632 -0.42667946 -0.21917538
-0.104989514 -0.74243677 -0.36557317 -0.2031619 -0.450422 -0.7913337 -0.3394903 -0.431857
-0.30774868 -0.15822177 -0.4164204 -0.11071842 -0.061343826 0.01595078 -0.18166527 -0.16747285
-0.43861824 -0.054653253 -0.28289273 -0.14356288 0.08953358 -0.043796316 -0.34185866 -0.377351
0.21699105 0.08414497 -0.12551694 0.1164595 -0.15691316 0.11810145 0.020368673 -0.2338955
0.12736271 -0.07191624 0.026619434 -0.01910463 -0.008126903 -0.14926441 0.05348221 0.06490027
00000000: 57b0 573c 6965 23bf aa6d 18bd 08d0 b53e
00000010: cab6 69be 0152 2f3f 0496 53bf e9fb 79bc
00000020: a7c9 fa3e 411c b6bd d4f5 e93d bdc1 32bf
00000030: 34da 2dbf 4aa2 293f 98fd 893e c9be 413f
00000040: 8c97 7cbe ad77 acbe 2522 5abe 1284 0fbf
00000050: abe0 bbbc c860 b3be 8f63 4a3e 8c82 43be
00000060: 7080 aebe 1a1a fabd 6870 c6be d65f 1abf
00000070: a3ad 0f3c 0b12 4ebe 8e28 0fbe 4b82 6f3c
00000080: 9fb8 f93c 14f3 81bc c5e5 b43b a3f3 3c3c
00000090: 1850 c5bc 4add a2bd 7207 8c3e d22e 00be
000000a0: 614f c7bd 7b43 e8bc acf5 e53a 072b 7fbd
000000b0: cb1d d2bc 1845 a8bd 941e 19bd 0db0 8f3d
000000c0: 57b0 573c 6965 23bf aa6d 18bd 08d0 b53e
000000d0: cab6 69be 0152 2f3f 0496 53bf e9fb 79bc
000000e0: a7c9 fa3e 411c b6bd d4f5 e93d bdc1 32bf
000000f0: 34da 2dbf 4aa2 293f 98fd 893e c9be 413f
00000100: 8c97 7cbe ad77 acbe 2522 5abe 1284 0fbf
00000110: abe0 bbbc c860 b3be 8f63 4a3e 8c82 43be
00000120: 7080 aebe 1a1a fabd 6870 c6be d65f 1abf
00000130: a3ad 0f3c 0b12 4ebe 8e28 0fbe 4b82 6f3c
00000140: c093 123d 8a94 9bbc 644c e3bc ed9b 3abb
00000150: 8d37 f9bd 9702 a8bd 691b 863e cee0 6dbd
00000160: 199a 81bd fb00 abbc 386a f2bc e2df 84bd
00000170: d189 22bd c8d4 43bd 673e 05bd 0072 8b3d
00000180: 23e8 78be 4ff0 04bf 755f d0be cfe6 fa3d
00000190: 6b93 47bf ed56 a1be bb75 dabe 836f 60be
000001a0: be04 d7bd 5610 3ebf 682c bbbe ac09 50be
000001b0: b69d e6be d894 4abf acd1 adbe 5c1c ddbe
000001c0: 3c91 9dbe e304 22be 0e35 d5be 57c0 e2bd
000001d0: aa43 7bbd 36ab 823c 7606 3abe 017e 2bbe
000001e0: 9292 e0be 17dc 5fbd 51d7 90be 2602 13be
000001f0: 625d b73d c463 33bd 1908 afbe 2634 c1be
00000200: d8cc 133d ee00 393c 392b 0d3e d043 e1bc
00000210: e9c3 8dbd 1533 cebc 9687 89bd af67 78bc
00000220: baa9 e83d ea6b 0c3c 7a1d 97bc ada0 e5bb
00000230: 1196 b43d d2db c73d 32e3 943c 2fd1 e13b
00000240: 23e8 78be 4ff0 04bf 755f d0be cfe6 fa3d
00000250: 6b93 47bf ed56 a1be bb75 dabe 836f 60be
00000260: be04 d7bd 5610 3ebf 682c bbbe ac09 50be
00000270: b69d e6be d894 4abf acd1 adbe 5c1c ddbe
00000280: 3c91 9dbe e304 22be 0e35 d5be 57c0 e2bd
00000290: aa43 7bbd 36ab 823c 7606 3abe 017e 2bbe
000002a0: 9292 e0be 17dc 5fbd 51d7 90be 2602 13be
000002b0: 625d b73d c463 33bd 1908 afbe 2634 c1be
000002c0: e732 5e3e 3354 ac3d 8387 00be 5182 ee3d
000002d0: d8ad 20be 2cdf f13d 34dc a63c 4d82 6fbe
000002e0: 5f6b 023e d248 93bd 0011 da3c 5081 9cbc
000002f0: b426 05bc c5d8 18be 2910 5b3d 6fea 843d

B__75 f4 [1, 96]
-0.043288525 0.24061666 0.08373004 0.29241356 0.032591287 -0.17942102 0.65339535 0.3637856
-0.34283826 0.12311322 -0.04457154 0.11973438 0.19241919 0.3624568 0.2039555 0.45116872
0.03285121 -0.6621003 0.09982161 -0.5098891 -0.613708 -0.037508156 -0.43234596 0.09622887
0.25899205 -0.0946758 -0.5770691 -0.4731678 -0.2855216 -0.30673668 -0.15373011 -0.4303767
0.17280489 0.06731887 -0.22771563 0.14669457 -0.07708513 0.28590426 0.061920688 0.029521864
0.28227192 -0.053950384 0.09825897 -0.06734361 0.100995935 0.005177021 -0.15092178 -0.10285199
-0.043288525 0.24061666 0.08373004 0.29241356 0.032591287 -0.17942102 0.65339535 0.3637856
-0.34283826 0.12311322 -0.04457154 0.11973438 0.19241919 0.3624568 0.2039555 0.45116872
0.03285121 -0.6621003 0.09982161 -0.5098891 -0.613708 -0.037508156 -0.43234596 0.09622887
0.25899205 -0.0946758 -0.5770691 -0.4731678 -0.2855216 -0.30673668 -0.15373011 -0.4303767
0.25917435 0.07162162 -0.31651187 0.2250133 -0.19820265 0.32190508 0.18323459 -0.041379984
0.43295372 -0.06377222 0.21124348 -0.060233098 0.2183606 -0.10618567 -0.34045097 -0.21121651
00000000: 4f4f 31bd 3764 763e a87a ab3d 3bb7 953e
00000010: 717e 053d 25ba 37be eb44 273f 1b42 ba3e
00000020: 7f88 afbe c922 fc3d a690 36bd 4c37 f53d
00000030: 8909 453e f093 b93e b6d9 503e 96ff e63e
00000040: fe8e 063d 687f 29bf 466f cc3d 1888 02bf
00000050: f81b 1dbf 27a2 19bd 735c ddbe a413 c53d
00000060: 9b9a 843e 63e5 c1bd cdba 13bf 0d43 f2be
00000070: e32f 92be 970c 9dbe 6d6b 1dbe 565a dcbe
00000080: c4f3 303e 7ade 893d 492e 69be 1a37 163e
00000090: cfde 9dbd 0b62 923e 8ca0 7d3d d6d7 f13c
000000a0: f285 903e 14fb 5cbd 003c c93d 72eb 89bd
000000b0: f5d6 ce3d 00a4 a93b 3d8b 1abe 10a4 d2bd
000000c0: 4f4f 31bd 3764 763e a87a ab3d 3bb7 953e
000000d0: 717e 053d 25ba 37be eb44 273f 1b42 ba3e
000000e0: 7f88 afbe c922 fc3d a690 36bd 4c37 f53d
000000f0: 8909 453e f093 b93e b6d9 503e 96ff e63e
00000100: fe8e 063d 687f 29bf 466f cc3d 1888 02bf
00000110: f81b 1dbf 27a2 19bd 735c ddbe a413 c53d
00000120: 9b9a 843e 63e5 c1bd cdba 13bf 0d43 f2be
00000130: e32f 92be 970c 9dbe 6d6b 1dbe 565a dcbe
00000140: 80b2 843e 5bae 923d d80d a2be e369 663e
00000150: a3f5 4abe bed0 a43e d9a1 3b3e 0f7e 29bd
00000160: 1cac dd3e 029b 82bd 3650 583e fbb6 76bd
00000170: ec99 5f3e df77 d9bd 974f aebe 2449 58be
